…
 'dropout': 0.2,
 'input_shape': (25,),
 'layers': [1024, 1024, 1024, 1024, 1024, 512, 256, 128],
 'loss': 'HuberLossOneTail',
 'loss_params': {'deltaL': 1},
 'monitor_dir': '/work/kaechb/trainHuberLossOneTail1smaller300',
 'name': 'ffwd',
 'non_neg': False,
 'optimizer': 'Adam',
 'optimizer_params': {'lr': 0.001},
 'output_shape': None,
 'save_best_only': 'True',
 'valid_frac': 0.05}
_________________________________________________________________
Layer (type)                 Output Shape              Param #   
=================================================================
ffwd_inp (InputLayer)        (None, 25)                0         
_________________________________________________________________
ffwd_bn0 (BatchNormalization (None, 25)                100       
_________________________________________________________________
ffwd_dense1 (Dense)          (None, 1024)              25600     
_________________________________________________________________
ffwd_bn1 (BatchNormalization (None, 1024)              4096      
_________________________________________________________________
ffwd_do1 (Dropout)           (None, 1024)              0         
_________________________________________________________________
ffwd_act1_lrelu (LeakyReLU)  (None, 1024)              0         
_________________________________________________________________
ffwd_dense2 (Dense)          (None, 1024)              1048576   
_________________________________________________________________
ffwd_bn2 (BatchNormalization (None, 1024)              4096      
_________________________________________________________________
ffwd_do2 (Dropout)           (None, 1024)              0         
_________________________________________________________________
ffwd_act2_lrelu (LeakyReLU)  (None, 1024)              0         
_________________________________________________________________
ffwd_dense3 (Dense)          (None, 1024)              1048576   
_________________________________________________________________
ffwd_bn3 (BatchNormalization (None, 1024)              4096      
_________________________________________________________________
ffwd_do3 (Dropout)           (None, 1024)              0         
_________________________________________________________________
ffwd_act3_lrelu (LeakyReLU)  (None, 1024)              0         
_________________________________________________________________
ffwd_dense4 (Dense)          (None, 1024)              1048576   
_________________________________________________________________
ffwd_bn4 (BatchNormalization (None, 1024)              4096      
_________________________________________________________________
ffwd_do4 (Dropout)           (None, 1024)              0         
_________________________________________________________________
ffwd_act4_lrelu (LeakyReLU)  (None, 1024)              0         
_________________________________________________________________
ffwd_dense5 (Dense)          (None, 1024)              1048576   
_________________________________________________________________
ffwd_bn5 (BatchNormalization (None, 1024)              4096      
_________________________________________________________________
ffwd_do5 (Dropout)           (None, 1024)              0         
_________________________________________________________________
ffwd_act5_lrelu (LeakyReLU)  (None, 1024)              0         
_________________________________________________________________
ffwd_dense6 (Dense)          (None, 512)               524288    
_________________________________________________________________
ffwd_bn6 (BatchNormalization (None, 512)               2048      
_________________________________________________________________
ffwd_do6 (Dropout)           (None, 512)               0         
_________________________________________________________________
ffwd_act6_lrelu (LeakyReLU)  (None, 512)               0         
_________________________________________________________________
ffwd_dense7 (Dense)          (None, 256)               131072    
_________________________________________________________________
ffwd_bn7 (BatchNormalization (None, 256)               1024      
_________________________________________________________________
ffwd_do7 (Dropout)           (None, 256)               0         
_________________________________________________________________
ffwd_act7_lrelu (LeakyReLU)  (None, 256)               0         
_________________________________________________________________
ffwd_dense8 (Dense)          (None, 128)               32768     
_________________________________________________________________
ffwd_bn8 (BatchNormalization (None, 128)               512       
_________________________________________________________________
ffwd_do8 (Dropout)           (None, 128)               0         
_________________________________________________________________
ffwd_act8_lrelu (LeakyReLU)  (None, 128)               0         
_________________________________________________________________
ffwd_out (Dense)             (None, 1)                 129       
=================================================================
Total params: 4,932,325
Trainable params: 4,920,243
Non-trainable params: 12,082
_________________________________________________________________
None
Train on 1018703 samples, validate on 53616 samples
Epoch 1/100

   1024/1018703 [..............................] - ETA: 1:42:09 - loss: 0.5063 - mse0: 1.1889 - mae0: 0.7846 - r2_score0: -13.1822
…
